…
Epoch 14/15
195/195 [==============================] - 4s 19ms/step - loss: 0.2503 - accuracy: 0.9733 - val_loss: 0.2363 - val_accuracy: 0.9835
Epoch 15/15
195/195 [==============================] - 4s 20ms/step - loss: 0.2776 - accuracy: 0.9610 - val_loss: 0.2367 - val_accuracy: 0.9753
44/44 - 0s - loss: 0.4614 - accuracy: 0.9318 - 293ms/epoch - 7ms/step
Model: "sequential"
_________________________________________________________________
 Layer (type)                Output Shape              Param #
=================================================================
 resizing (Resizing)         (None, 60, 60, 1)         0

 rescaling (Rescaling)       (None, 60, 60, 1)         0

 conv2d (Conv2D)             (None, 58, 58, 16)        160

 max_pooling2d (MaxPooling2D  (None, 29, 29, 16)       0
 )

 dropout (Dropout)           (None, 29, 29, 16)        0

 conv2d_1 (Conv2D)           (None, 27, 27, 32)        4640

 max_pooling2d_1 (MaxPooling  (None, 13, 13, 32)       0
 2D)

 dropout_1 (Dropout)         (None, 13, 13, 32)        0

 conv2d_2 (Conv2D)           (None, 11, 11, 64)        18496

 max_pooling2d_2 (MaxPooling  (None, 5, 5, 64)         0
 2D)

 dropout_2 (Dropout)         (None, 5, 5, 64)          0

 flatten (Flatten)           (None, 1600)              0

 dense (Dense)               (None, 128)               204928

 dropout_3 (Dropout)         (None, 128)               0

 dense_1 (Dense)             (None, 128)               16512

 dropout_4 (Dropout)         (None, 128)               0

 dense_2 (Dense)             (None, 2)                 258

=================================================================
Total params: 244,994
Trainable params: 244,994
Non-trainable params: 0
_________________________________________________________________
