…
1374/1374 [==============================] - 305s 222ms/step - loss: 0.6811 - accuracy: 0.8916 - val_loss: 0.6852 - val_accuracy: 0.8910
341/341 [==============================] - 181s 515ms/step - loss: 0.9271 - accuracy: 0.8387
Model: "model"
_________________________________________________________________
 Layer (type)                Output Shape              Param #   
=================================================================
 input_2 (InputLayer)        [(None, 180, 180, 3)]     0         
                                                                 
 sequential_1 (Sequential)   (None, 180, 180, 3)       0         
                                                                 
 sequential (Sequential)     (None, 180, 180, 3)       0         
                                                                 
 inception_v3 (Functional)   (None, 4, 4, 2048)        21802784  
                                                                 
 global_average_pooling2d (G  (None, 2048)             0         
 lobalAveragePooling2D)                                          
                                                                 
 dense (Dense)               (None, 256)               524544    
                                                                 
 dropout (Dropout)           (None, 256)               0         
                                                                 
 dense_1 (Dense)             (None, 512)               131584    
                                                                 
 dropout_1 (Dropout)         (None, 512)               0         
                                                                 
 dense_2 (Dense)             (None, 512)               262656    
                                                                 
 dropout_2 (Dropout)         (None, 512)               0         
                                                                 
 dense_3 (Dense)             (None, 4)                 2052      
                                                                 
=================================================================
Total params: 22,723,620
Trainable params: 920,836
Non-trainable params: 21,802,784
_________________________________________________________________

Epoch 16/25
1374/1374 [==============================] - 343s 250ms/step - loss: 0.9904 - accuracy: 0.7665 - val_loss: 0.7314 - val_accuracy: 0.8695
…
