…
1374/1374 [==============================] - 325s 237ms/step - loss: 0.8485 - accuracy: 0.8694 - val_loss: 0.7639 - val_accuracy: 0.8957
341/341 [==============================] - 377s 1s/step - loss: 1.0764 - accuracy: 0.8164
Model: "model"
_________________________________________________________________
 Layer (type)                Output Shape              Param #   
=================================================================
 input_2 (InputLayer)        [(None, 180, 180, 3)]     0         
                                                                 
 sequential_1 (Sequential)   (None, 180, 180, 3)       0         
                                                                 
 sequential (Sequential)     (None, 180, 180, 3)       0         
                                                                 
 inception_v3 (Functional)   (None, 4, 4, 2048)        21802784  
                                                                 
 global_average_pooling2d (G  (None, 2048)             0         
 lobalAveragePooling2D)                                          
                                                                 
 dense (Dense)               (None, 1024)              2098176   
                                                                 
 dropout (Dropout)           (None, 1024)              0         
                                                                 
 dense_1 (Dense)             (None, 512)               524800    
                                                                 
 dropout_1 (Dropout)         (None, 512)               0         
                                                                 
 dense_2 (Dense)             (None, 512)               262656    
                                                                 
 dropout_2 (Dropout)         (None, 512)               0         
                                                                 
 dense_3 (Dense)             (None, 256)               131328    
                                                                 
 dropout_3 (Dropout)         (None, 256)               0         
                                                                 
 dense_4 (Dense)             (None, 4)                 1028      
                                                                 
=================================================================
Total params: 24,820,772
Trainable params: 3,017,988
Non-trainable params: 21,802,784
_________________________________________________________________
Epoch 16/30
1374/1374 [==============================] - 351s 255ms/step - loss: 0.7364 - accuracy: 0.8989 - val_loss: 0.6213 - val_accuracy: 0.9464
…
